…
y(mobileNetBlock,input_size=input_size,col_names=[\"kernel_size\", \"output_size\", \"num_params\", \"mult_adds\"])\n\n============================================================================================================================================\nLayer (type:depth-idx)                   Kernel Shape              Output Shape              Param #                   Mult-Adds\n============================================================================================================================================\nSequential                               --                        [3, 128, 112, 112]        --                        --\n├─Conv2d: 1-1                            [3, 3]                    [3, 64, 112, 112]         576                       21,676,032\n├─BatchNorm2d: 1-2                       --                        [3, 64, 112, 112]         128                       384\n├─ReLU: 1-3                              --                        [3, 64, 112, 112]         --                        --\n├─Conv2d: 1-4                            [1, 1]                    [3, 128, 112, 112]        8,192                     308,281,344\n├─BatchNorm2d: 1-5                       --                        [3, 128, 112, 112]        256                       768\n├─ReLU: 1-6                              --                        [3, 128, 112, 112]        --                        --\n============================================================================================================================================\nTotal params: 9,152\nTrainable params: 9,152\nNon-trainable params: 0\nTotal mult-adds (M): 329.96\n==================================================================================================================================
…
mobileNetV2Block,input_size=input_size,col_names=[\"kernel_size\", \"output_size\", \"num_params\", \"mult_adds\"])\n\n============================================================================================================================================\nLayer (type:depth-idx)                   Kernel Shape              Output Shape              Param #                   Mult-Adds\n============================================================================================================================================\nMobileNetv2Block                         --                        [3, 128, 112, 112]        --                        --\n├─Sequential: 1-1                        --                        [3, 128, 224, 224]        --                        --\n│    └─Conv2d: 2-1                       [1, 1]                    [3, 128, 224, 224]        8,192                     1,233,125,376\n│    └─BatchNorm2d: 2-2                  --                        [3, 128, 224, 224]        256                       768\n│    └─ReLU6: 2-3                        --                        [3, 128, 224, 224]        --                        --\n├─Sequential: 1-2                        --                        [3, 128, 112, 112]        --                        --\n│    └─Conv2d: 2-4                       [3, 3]                    [3, 128, 112, 112]        1,152                     43,352,064\n│    └─BatchNorm2d: 2-5                  --                        [3, 128, 112, 112]        256                       768\n│    └─ReLU6: 2-6                        --                        [3, 128, 112, 112]        --                        --\n├─Sequential: 1-3                        --                        [3, 128, 112, 112]        --                        --\n│    └─Conv2d: 2-7                       [1, 1]                    [3, 128, 112, 112]        16,384                    616,562,688\n│    └─BatchNorm2d: 2-8                  --                        [3, 128, 112, 112]        256                       768\n│    └─ReLU6: 2-9                        --                        [3, 128, 112, 112]        --                        --\n============================================================================================================================================\nTotal params: 26,496\nTrainable params: 26,496\nNon-trainable params: 0\nTotal mult-adds (G): 1.89\n==================================================================================================================================
…
MobileNetV1Block,input_size=input_size,col_names=[\"kernel_size\", \"output_size\", \"num_params\", \"mult_adds\"])\n\n============================================================================================================================================\nLayer (type:depth-idx)                   Kernel Shape              Output Shape              Param #                   Mult-Adds\n============================================================================================================================================\nInvertedResidual                         --                        [3, 128, 112, 112]        --                        --\n├─Sequential: 1-1                        --                        [3, 128, 112, 112]        --                        --\n│    └─ConvNormActivation: 2-1           --                        [3, 64, 112, 112]         --                        --\n│    │    └─Conv2d: 3-1                  [3, 3]                    [3, 64, 112, 112]         576                       21,676,032\n│    │    └─BatchNorm2d: 3-2             --                        [3, 64, 112, 112]         128                       384\n│    │    └─ReLU6: 3-3                   --                        [3, 64, 112, 112]         --                        --\n│    └─Conv2d: 2-2                       [1, 1]                    [3, 128, 112, 112]        8,192                     308,281,344\n│    └─BatchNorm2d: 2-3                  --                        [3, 128, 112, 112]        256                       768\n============================================================================================================================================\nTotal params: 9,152\nTrainable params: 9,152\nNon-trainable params: 0\nTotal mult-adds (M): 329.96\n==================================================================================================================================
…
MobileNetV2Block,input_size=input_size,col_names=[\"kernel_size\", \"output_size\", \"num_params\", \"mult_adds\"])\n\n============================================================================================================================================\nLayer (type:depth-idx)                   Kernel Shape              Output Shape              Param #                   Mult-Adds\n============================================================================================================================================\nInvertedResidual                         --                        [3, 128, 112, 112]        --                        --\n├─Sequential: 1-1                        --                        [3, 128, 112, 112]        --                        --\n│    └─ConvNormActivation: 2-1           --                        [3, 128, 224, 224]        --                        --\n│    │    └─Conv2d: 3-1                  [1, 1]                    [3, 128, 224, 224]        8,192                     1,233,125,376\n│    │    └─BatchNorm2d: 3-2             --                        [3, 128, 224, 224]        256                       768\n│    │    └─ReLU6: 3-3                   --                        [3, 128, 224, 224]        --                        --\n│    └─ConvNormActivation: 2-2           --                        [3, 128, 112, 112]        --                        --\n│    │    └─Conv2d: 3-4                  [3, 3]                    [3, 128, 112, 112]        1,152                     43,352,064\n│    │    └─BatchNorm2d: 3-5             --                        [3, 128, 112, 112]        256                       768\n│    │    └─ReLU6: 3-6                   --                        [3, 128, 112, 112]        --                        --\n│    └─Conv2d: 2-3                       [1, 1]                    [3, 128, 112, 112]        16,384                    616,562,688\n│    └─BatchNorm2d: 2-4                  --                        [3, 128, 112, 112]        256                       768\n============================================================================================================================================\nTotal params: 26,496\nTrainable params: 26,496\nNon-trainable params: 0\nTotal mult-adds (G): 1.89\n============================================================================================================================================\nInput size (MB): 38.54\nForward/backward pass size (MB): 462.42\nParams size (MB): 0.11\nEstimated Total Size (MB): 501.06\n============================================================================================================================================"
…
ne positional embedding in the original paper,\n#  the only difference here is that since we have HxW in the feature domain , \n# suppose if our embedding dim is 256,\n#  we will have them alingned in such a way that the first 128 corresponds\n#  to vertical and the next 128 corresponds\n# to vertical so that in the end we end up with 256 and that encodes both vertical \n# and horizontal positions. https://github.com/fundamentalvision/Deformable-DETR/blob/11169a60c33333af00a4849f1808023eba96a931/models/position_encoding.py#L55\n# 3. Suppose we get feature map from 4 layers and let \n# them be (4,512,134,134) ,(4,1024,67,67) , (4,2048,34,34) ,(4,2048,17,17) \n# [Note the actual feature map in the paper is created by \n# an additional conv+group norm] and there positional embeddings w\n# will have the same size as well. but with the corresponding embedding dim, \n# so they will be of size (4,256,134,134) ,(4,256,67,67) ,(4,256,34,34) ,(4,256,17,17)\n\n\nfeature_shapes = [\n    (4, 512, 134, 134),\n    (4, 1024, 67, 67),\n    (4, 2048, 34, 34),\n    (4, 2048, 17, 17)\n]\n\n# Positional embedding shapes (same spatial dims, but channel dim = 256)\nembedding_shapes = [\n    (4, 256, 134, 134),\n    (4, 256, 67, 67),\n    (4, 256, 34, 34),\n    (4, 256, 17, 17)\n]\n\n# original implementation here https://github.com/fundamentalvisio
…
