…
y(mobileNetBlock,input_size=input_size,col_names=[\"kernel_size\", \"output_size\", \"num_params\", \"mult_adds\"])\n\n============================================================================================================================================\nLayer (type:depth-idx)                   Kernel Shape              Output Shape              Param #                   Mult-Adds\n============================================================================================================================================\nSequential                               --                        [3, 128, 112, 112]        --                        --\n├─Conv2d: 1-1                            [3, 3]                    [3, 64, 112, 112]         576                       21,676,032\n├─BatchNorm2d: 1-2                       --                        [3, 64, 112, 112]         128                       384\n├─ReLU: 1-3                              --                        [3, 64, 112, 112]         --                        --\n├─Conv2d: 1-4                            [1, 1]                    [3, 128, 112, 112]        8,192                     308,281,344\n├─BatchNorm2d: 1-5                       --                        [3, 128, 112, 112]        256                       768\n├─ReLU: 1-6                              --                        [3, 128, 112, 112]        --                        --\n============================================================================================================================================\nTotal params: 9,152\nTrainable params: 9,152\nNon-trainable params: 0\nTotal mult-adds (M): 329.96\n==================================================================================================================================
…
mobileNetV2Block,input_size=input_size,col_names=[\"kernel_size\", \"output_size\", \"num_params\", \"mult_adds\"])\n\n============================================================================================================================================\nLayer (type:depth-idx)                   Kernel Shape              Output Shape              Param #                   Mult-Adds\n============================================================================================================================================\nMobileNetv2Block                         --                        [3, 128, 112, 112]        --                        --\n├─Sequential: 1-1                        --                        [3, 128, 224, 224]        --                        --\n│    └─Conv2d: 2-1                       [1, 1]                    [3, 128, 224, 224]        8,192                     1,233,125,376\n│    └─BatchNorm2d: 2-2                  --                        [3, 128, 224, 224]        256                       768\n│    └─ReLU6: 2-3                        --                        [3, 128, 224, 224]        --                        --\n├─Sequential: 1-2                        --                        [3, 128, 112, 112]        --                        --\n│    └─Conv2d: 2-4                       [3, 3]                    [3, 128, 112, 112]        1,152                     43,352,064\n│    └─BatchNorm2d: 2-5                  --                        [3, 128, 112, 112]        256                       768\n│    └─ReLU6: 2-6                        --                        [3, 128, 112, 112]        --                        --\n├─Sequential: 1-3                        --                        [3, 128, 112, 112]        --                        --\n│    └─Conv2d: 2-7                       [1, 1]                    [3, 128, 112, 112]        16,384                    616,562,688\n│    └─BatchNorm2d: 2-8                  --                        [3, 128, 112, 112]        256                       768\n│    └─ReLU6: 2-9                        --                        [3, 128, 112, 112]        --                        --\n============================================================================================================================================\nTotal params: 26,496\nTrainable params: 26,496\nNon-trainable params: 0\nTotal mult-adds (G): 1.89\n==================================================================================================================================
…
MobileNetV1Block,input_size=input_size,col_names=[\"kernel_size\", \"output_size\", \"num_params\", \"mult_adds\"])\n\n============================================================================================================================================\nLayer (type:depth-idx)                   Kernel Shape              Output Shape              Param #                   Mult-Adds\n============================================================================================================================================\nInvertedResidual                         --                        [3, 128, 112, 112]        --                        --\n├─Sequential: 1-1                        --                        [3, 128, 112, 112]        --                        --\n│    └─ConvNormActivation: 2-1           --                        [3, 64, 112, 112]         --                        --\n│    │    └─Conv2d: 3-1                  [3, 3]                    [3, 64, 112, 112]         576                       21,676,032\n│    │    └─BatchNorm2d: 3-2             --                        [3, 64, 112, 112]         128                       384\n│    │    └─ReLU6: 3-3                   --                        [3, 64, 112, 112]         --                        --\n│    └─Conv2d: 2-2                       [1, 1]                    [3, 128, 112, 112]        8,192                     308,281,344\n│    └─BatchNorm2d: 2-3                  --                        [3, 128, 112, 112]        256                       768\n============================================================================================================================================\nTotal params: 9,152\nTrainable params: 9,152\nNon-trainable params: 0\nTotal mult-adds (M): 329.96\n==================================================================================================================================
…
MobileNetV2Block,input_size=input_size,col_names=[\"kernel_size\", \"output_size\", \"num_params\", \"mult_adds\"])\n\n============================================================================================================================================\nLayer (type:depth-idx)                   Kernel Shape              Output Shape              Param #                   Mult-Adds\n============================================================================================================================================\nInvertedResidual                         --                        [3, 128, 112, 112]        --                        --\n├─Sequential: 1-1                        --                        [3, 128, 112, 112]        --                        --\n│    └─ConvNormActivation: 2-1           --                        [3, 128, 224, 224]        --                        --\n│    │    └─Conv2d: 3-1                  [1, 1]                    [3, 128, 224, 224]        8,192                     1,233,125,376\n│    │    └─BatchNorm2d: 3-2             --                        [3, 128, 224, 224]        256                       768\n│    │    └─ReLU6: 3-3                   --                        [3, 128, 224, 224]        --                        --\n│    └─ConvNormActivation: 2-2           --                        [3, 128, 112, 112]        --                        --\n│    │    └─Conv2d: 3-4                  [3, 3]                    [3, 128, 112, 112]        1,152                     43,352,064\n│    │    └─BatchNorm2d: 3-5             --                        [3, 128, 112, 112]        256                       768\n│    │    └─ReLU6: 3-6                   --                        [3, 128, 112, 112]        --                        --\n│    └─Conv2d: 2-3                       [1, 1]                    [3, 128, 112, 112]        16,384                    616,562,688\n│    └─BatchNorm2d: 2-4                  --                        [3, 128, 112, 112]        256                       768\n============================================================================================================================================\nTotal params: 26,496\nTrainable params: 26,496\nNon-trainable params: 0\nTotal mult-adds (G): 1.89\n============================================================================================================================================\nInput size (MB): 38.54\nForward/backward pass size (MB): 462.42\nParams size (MB): 0.11\nEstimated Total Size (MB): 501.06\n============================================================================================================================================"
…
